data.pth (torch, 13418 bytes, 6 tensors)

l1.weight f4 [8, 175]
00000000: 8ee0 ccbe c066 473e b77b 8a3e 1825 e73e
00000010: 5438 21bf 9e9f 393e 4cc3 0bbf 2184 b93e
00000020: a90f c53e c012 0cbf 701e ad3e 92f2 26bd
00000030: 38a9 9ebd c9ac 943c eea3 1bbf df42 8f3e
00000040: c6de 1d3f 2910 653e 3c36 2b3e 97d0 873e
00000050: 1bcc 9b3d 1fd1 013f 5d44 a4bf a489 0cbf
00000060: dc59 4cbf d9e1 fa3d 183e e83f 7d98 fe3e
00000070: a9b5 ea3e 6e33 68bf 08c8 ae3e b05a b6be
00000080: d26c 1fbd 995b efbd e2d8 813f b53a a53e
00000090: 26c6 4bbf db17 343e cf29 c13e fa36 563c
000000a0: 2646 01bf 3a96 87be e918 4cbf a7ea 42be
000000b0: cb4a ccbc 3c40 523d f2c3 2dbf 86c1 cf3d
000000c0: 7994 29bf 8732 25bf 6d26 d23f abf9 793d
000000d0: 655b ba3d 0d15 af3f 2dcd f2be 38f1 15bf
000000e0: 04fe 6b3d ff47 3c3f ed99 33be 9842 bdbf
000000f0: fe2d 403f e14b 6fbc cdca 94bf 6826 a13c
00000100: 3a32 afbf dcc2 ce3e b019 c73e 49e9 04be
00000110: bae8 c13b a6f7 b43e 3541 913e 3531 c63e
00000120: d0a4 ab3f 5ed7 8ebe dcb3 ed3d 756c 93be
00000130: 6600 593e 41aa 3b3e 992d 4cbf 004a ffbe
00000140: c5bc 943e c56d 333e 8789 af3e 1f6f a03e
00000150: a8c7 49bf 2556 47be 85df d53e cd7c fe3e
00000160: f3c2 a2bf 6a2e bfbe 0a90 b03f 6115 f2bd
00000170: aff9 b73c 5458 443f ac9a c83e a4c8 ba3e
00000180: b9b2 7abe 87d5 6e3f 0ba8 df3e c5d5 663f
00000190: f07d 363e ccdf 7e3e 4040 aa3e bcd2 24be
000001a0: 07c2 0d3c 1e9e 883f 630e 1ebe e356 333e
000001b0: 4d4a e63d 57cf f9be 8bea a43e eccb f63e
000001c0: 3f41 723e 3733 7fbe f300 043e e31a 833e
000001d0: d922 3a3f 760a 143f bba1 8b3e d5ef 8b3f
000001e0: 9222 a33e d2c4 42be e732 693f b7a0 c83d
000001f0: e4e0 eb3e f575 e83e 24d2 2d3e 9f9a efbd
00000200: 6541 593e 94cf ac3e 450f e1be 6e9c f6be
00000210: a62e b73e 15ee e83e e953 3d3e e5d4 ee3e
00000220: 2f5b 473f 9fec 2e3d 96d6 a23f 2160 6e3f
00000230: b126 163d a752 1ebe c632 bb3e c7e8 e43e
00000240: d127 2cbf ff69 cb3e 43c7 fb3e da84 413e
00000250: e8ed ef3e 5d24 6d3e 7d76 fe3e 763d 453e
00000260: 22e8 6f3e 88f9 2abf d1ee 743e 3f1b 523f
00000270: aced 683e aed4 16be a634 0fbf d7ad 853e
00000280: 22d2 d63e ef21 02bf 1281 cdbd f910 833e
00000290: 08dd 933e 653d c93e 1bd2 5a3f 229c 3d3e
000002a0: c5be 623e a37d fa3e 094e 913e 8008 993e
000002b0: b7e6 8a3e 865e cbbd 8b19 75be 2df9 733f
000002c0: f19a 1b3f 3500 213f 781a 03be d3e5 8cbe
000002d0: cdd3 3dbe 7665 a8be e64b 313f b24d 313f
000002e0: 0abc 693d 79ae a5bd 9641 fe3e 289a bfbd
000002f0: 1260 8ebd 40fe ae3e 3ff3 5cbe 2300 763f
00000300: 5417 333f 12f5 d5be b832 b8bd 3049 743e
00000310: e80a c23f 7261 053e a391 d13f fc4a c73f
00000320: 387f 1b3f 1c96 ef3e 81a5 c03f d581 4b3f
00000330: a3a3 6c3d 0694 253f 96bd aabe 23c9 b73e
00000340: 1665 0b3f 2993 c73f e555 223f ab8b babd
00000350: ea3c 323f 9dbd bd3e ac2d 2fbd 9c9b 503e
00000360: d83e b6be 0f8a c93f 2f69 393f ebb0 d43d
00000370: 003a 863e 054f 4cbf ef40 693f b013 40bf
00000380: ae90 46bf 742e 9ebe 9299 2ebe 47f5 093f
00000390: 21af 77bf 43d5 91be ef6f 253f 5fb0 803e
000003a0: 2e86 e23d 1dd3 1a3f 8464 02be 2830 a23f
000003b0: 4a40 183f 6e50 4a3d aa6b afbc bc50 2abf
000003c0: a588 323f 4945 083f 963d 8c3f 5d59 833f
000003d0: d512 033f 055a cbbd 9d19 babd 62a7 0540
000003e0: 80f8 fa3e 7891 5b3e ea41 10bc 6902 6f3e
000003f0: d551 4cbe 95de 0040 e23e 553f 1c11 823e
-0.40015072 0.1947279 0.27047512 0.45145488 -0.62976575 0.18127295 -0.54594874 0.3623362
0.3848851 -0.5471611 0.33812284 -0.040758677 -0.0774712 0.018148797 -0.6079701 0.27980706
0.6166805 0.22369446 0.16719908 0.2652633 0.076072894 0.5070972 -1.2833363 -0.5489752
-0.79824615 0.12250108 1.814395 0.49725714 0.4584172 -0.90703475 0.34136987 -0.35616064
-0.03892214 -0.11687393 1.0144312 0.32271352 -0.79599226 0.17587225 0.3772721 0.013074631
-0.50497663 -0.264818 -0.7972551 -0.19034825 -0.024938008 0.05133079 -0.67877114 0.101443335
-0.66242176 -0.64530224 1.6417977 0.061029118 0.090994634 1.3678299 -0.47422162 -0.58571196
0.057615295 0.7354736 -0.17539187 -1.4785948 0.7507018 -0.014605493 -1.162439 0.019671634
-1.3687203 0.4038304 0.38886786 -0.12979616 0.0059176357 0.3534519 0.28370062 0.38709417
1.3409672 -0.27898687 0.11606571 -0.28793684 0.21191558 0.18326665 -0.79757077 -0.49861145
0.2905027 0.17522343 0.34284613 0.3133478 -0.78820276 -0.19466455 0.41772094 0.4970459
-1.2715744 -0.373401 1.3793957 -0.11820484 0.022457926 0.7669728 0.39180505 0.36481202
-0.2448224 0.93294567 0.43682894 0.90169936 0.17821479 0.24890059 0.33252144 -0.16096014
0.008652217 1.0673254 -0.15435176 0.17513613 0.112446405 -0.48791 0.32210192 0.48202455
0.23657702 -0.2492188 0.12890987 0.2560645 0.72709423 0.5782846 0.27271828 1.0932566
0.31862313 -0.19020393 0.91093296 0.09796279 0.46070015 0.45402494 0.16974694 -0.116994135
0.21216352 0.3375212 -0.43956962 -0.4816622 0.35777777 0.45494142 0.1848904 0.466468
0.7787351 0.04270613 1.2721736 0.9311543 0.036657993 -0.15461217 0.36562175 0.44708845
-0.67248255 0.39729306 0.49175462 0.18898335 0.46861196 0.23158403 0.49699774 0.19261727
0.23428395 -0.66787004 0.23919226 0.82072824 0.22746915 -0.14729568 -0.5593971 0.26109192
0.41957194 -0.5083303 -0.10034384 0.25598887 0.2887957 0.39304653 0.85476846 0.18516591
0.22143085 0.48923978 0.2837985 0.29889297 0.27129146 -0.09930138 -0.23935525 0.9530209
0.60783297 0.6289094 -0.12803066 -0.27519092 -0.18537827 -0.3288991 0.69256437 0.6925918
0.057064094 -0.08089919 0.49659413 -0.09355575 -0.06951918 0.34178352 -0.21577166 0.9609396
0.6995747 -0.41788536 -0.08994049 0.23856044 1.5159578 0.13025454 1.637257 1.5569758
0.60740995 0.46794212 1.5050508 0.7949498 0.057773244 0.6467899 -0.33347768 0.35895643
0.5445112 1.5591785 0.63412315 -0.09108671 0.696242 0.37058726 -0.042768165 0.2037186
-0.3559482 1.5745257 0.7242612 0.10385307 0.26216125 -0.79808074 0.91114706 -0.7503004
-0.77564514 -0.30894816 -0.1705077 0.5388989 -0.967516 -0.28483018 0.6462392 0.2513456
0.11060749 0.60478383 -0.12733656 1.2670946 0.594731 0.04939311 -0.021413643 -0.6652944
0.69739753 0.5323072 1.0956295 1.0261647 0.5120061 -0.09929279 -0.090869166 2.0883412
0.49017715 0.2144221 -0.008804778 0.23340763 -0.19953091 2.0135853 0.83299077 0.25403678

l1.bias f4 [8]
00000000: 6c3d 4c3f 0d7d 9f3f 7044 453f 2647 1a3f
00000010: 6815 1e3f 2de6 193f df8a 883f 21ae 913f
0.7978122 1.2460037 0.7705755 0.60264814 0.61751413 0.60116845 1.066738 1.1381265

l2.weight f4 [8, 8]
00000000: a5e8 babf c853 9d3f d4b6 a0bf 12e1 c4be
00000010: 36c3 46bf 7b7e 623f 54c7 1a40 3e08 2c3f
00000020: e762 df3e 122d e43f d73e 0040 a0c0 c7bf
00000030: 0c7b b83d eab3 223c 1315 c3bf f8c1 ee3f
00000040: e456 6f40 8d63 c83f 3dee 13bf 9e4f b13f
00000050: 7e1c cb3e 6ab6 f63f c9cd 4e3f bcfd 45bf
00000060: 240a 87bf 96c1 c03f d49c ba3f 6f6b 1d3e
00000070: f4c1 cc3f ef35 a8bf d474 0c3f 8f96 a8bf
00000080: 1fbd 31be 51e8 1cbe 10b3 5140 a9b8 2c3f
00000090: 5401 aa3f ec9e c5bf 15b6 9ebc acdd 9a3f
000000a0: 0717 853f 2585 2bbf 77cd d53e a4ca 95bf
000000b0: a78a cb3f a156 31bf 9170 dc3f e4fd 9bbe
000000c0: 26ed 773f 8c27 35be 2ebe c63f 6159 b8bf
000000d0: 6075 853f 24f9 ae3f d65b 153f 25fe 983f
000000e0: b6e8 d2be cc69 b73f bf40 1abf b0a8 3ebe
000000f0: 60d6 5a3f 80aa 91bf 664e 473f 6984 3cbf
-1.4602247 1.2291193 -1.2555795 -0.38452965 -0.7764162 0.88474244 2.418416 0.67200077
0.43630144 1.7826254 2.0038354 -1.560566 0.09007844 0.00993059 -1.5240806 1.8652945
3.7396784 1.565538 -0.577854 1.3852422 0.39670175 1.9274418 0.80782753 -0.7734029
-1.054997 1.5059078 1.457911 0.15373014 1.599669 -1.3141459 0.54865766 -1.3170947
-0.173573 -0.15322997 3.276554 0.6746927 1.3281655 -1.5439124 -0.019373933 1.2098899
1.0397652 -0.6700004 0.4175832 -1.1702466 1.5901688 -0.6927281 1.7221853 -0.3046714
0.96846235 -0.17690867 1.5526788 -1.4402276 1.0426445 1.3669782 0.58343256 1.1952559
-0.4119317 1.4329162 -0.60255045 -0.18619037 0.8548336 -1.1380157 0.77854 -0.7363954

l2.bias f4 [8]
00000000: e74d 753f fc62 773f d7df 9c3e e38e 8a3e
00000010: 1f57 463f 37b1 ff3d 7819 e53c 2350 023f
0.95821995 0.96635413 0.30639526 0.2706214 0.77476686 0.12484973 0.027966246 0.5090353

l3.weight f4 [30, 8]
00000000: 5455 113e d7fd 2abf 6d99 0f3e 9d87 a53e
00000010: 6570 54c0 e3c5 82bf 8e77 dabf 877a c93e
00000020: 5c76 5dbf 537b 94bf 0fec 8f3e 2178 ab3e
00000030: 1577 48bf 44d8 97bf 224c ddbf 0130 ff3e
00000040: 7fce b0bd e883 04c0 b891 0ebe 18fe 03bf
00000050: afed 48bf 6d6b 743e ab8c f5be 68ab 0b3d
00000060: 97c4 d5bf 74c3 b0bf ac51 1a3e fcc8 8dbf
00000070: 056c bcbe 91b5 a43c 9db7 bd3d e613 9abf
00000080: 3f9a 943f 6183 f93e ad80 06c0 b2ca 1ac0
00000090: f0ed ba3c 8d37 64bf 3698 f9be 7855 613f
000000a0: cd68 04bf 85e4 2a3e 9b47 7cc0 2ec4 21be
000000b0: c6a3 3a3f c69a 1c3f 1eb0 7f3d 3154 2dc0
000000c0: 0ea1 fe3d f4b2 dc3e f9c9 643e f2cc 12c0
000000d0: 2c22 28c0 fb72 60c0 f267 083e 0981 2fbf
000000e0: 9e79 11c0 3d21 943f 709f 95bd a33b 3fc0
000000f0: a542 b0bf fb21 51bf 31db e13e 640c 9fbf
00000100: 03d7 febe c54a dabf 0d17 93bf edc3 ea3e
00000110: ca9b 94be 9ebf f23e 4269 1d3e a00f 85be
00000120: 0362 14c0 c29b 1bbf 21fb 1ac0 7d24 133f
00000130: 0fcb 883e 704b 483f 508b 87bc 24be e9bd
00000140: 6ac0 02c0 0636 3b3f e8d0 2abf 6807 4e3f
00000150: 3240 8d3f ba33 61c0 dd7c 3fc0 a910 05c0
00000160: 8576 94be c4f3 4dbf cfe4 95be fde1 5bc0
00000170: faf8 9b3f a90f cabf f691 36bf e72c c2bf
00000180: 517e 1dc0 834c 363f dfaa a23e e047 7e3e
00000190: 68a5 0ebf c43a 45c0 2914 52c0 9948 973e
000001a0: 60ba 33c0 8697 d8be 6907 4e3f a71a cbbf
000001b0: c619 6cbf 4dba 1cc0 8e82 f5bd 8a98 12bf
000001c0: 1944 1ec0 720c 12c0 4804 503e 296e 863f
000001d0: 034e e43e bb62 26c0 e0a1 64c0 5593 643f
000001e0: 4f39 87bf 657e 0ac0 ec25 883f 2acf cbbf
000001f0: 1dff 19bd 733c 15c0 3e62 32c0 3309 09c0
00000200: 200f d73e 9651 e7bf c64e 80be b160 b93e
00000210: ba7f e63e 46ba f2bf a5e4 f1bf 5014 ca3e
00000220: ebd6 263f 8152 2ac0 4f75 793e 8e17 b9bd
00000230: aada 54bf 773e 0cc0 e1ae aebf 5290 3d3d
00000240: 2203 5a3e 63ab 063f 6c80 28bf f495 e5bd
00000250: 5dca 94bf d2fc 3ac0 a54e 9fbe 9944 c53e
00000260: a24a 94bf 5648 ac3d f671 febe 5208 223f
00000270: 9c58 1b3e 5461 bfbf 2ca2 92bf 3c00 983e
00000280: 9530 03bf e530 0f3f 22bd 1ec0 b9ec 133f
00000290: ccf6 693e b55a 11bf 8318 babe 0214 dc3e
000002a0: 1bbb 3dc0 219e c23d 2f37 7dbf 842a 57bf
000002b0: 7362 f53d 6a91 d83e 5d16 913e fa2e 22bf
000002c0: 33de 2fbd 08f4 293f ef54 18c0 ef90 4ec0
000002d0: f4ca 1a3f ca9a 5ac0 6e1d 5b3f eba0 9cbf
000002e0: a3b4 ffbf a2ab 403f 699f cabf 9458 153f
000002f0: 91b1 b13e 99f5 0bc0 8877 a93e 621e 14c0
00000300: f391 523f 7977 703f a14e 0abf 900b bd3e
00000310: f5d3 b2bf 2c0a a3be 4e37 b5c0 f10a 523f
00000320: 360d 94bd 7466 923c c7d5 45bf 9fe4 f6be
00000330: ba06 d0be 1525 67be 432e 0cbd 14aa dfbe
00000340: 2a42 803f 3355 7abf 0d36 32bf 81a6 56c0
00000350: f9ad 0dc0 b935 23be 6932 243f 107f 0dbf
00000360: 6f49 9b3e 6bf4 e03e f691 b8be 882f ccbe
00000370: fa12 30be 3136 83c0 1acf c33c c264 5ac0
00000380: 3fcd c23e 1377 09bf 16db 99bf 3e2b 0c3f
00000390: 1893 09bf 3787 0ebe 191d 83bf 3e8c 453f
000003a0: 6b0f 49c0 7702 debf 8b1d 53be 4387 5f3f
000003b0: ac66 f5bd 0c97 873e c75d 7ebf 2224 ce3e
0.14192706 -0.6679358 0.14023371 0.32330027 -3.31936 -1.021664 -1.7067735 0.39351293
-0.8650873 -1.1600136 0.28109786 0.3349009 -0.78306705 -1.1862874 -1.7288859 0.49841312
-0.08633136 -2.070551 -0.13922775 -0.5155959 -0.78487676 0.23869105 -0.47958884 0.034099013
-1.670062 -1.3809648 0.15070218 -1.107696 -0.36801162 0.020106109 0.09263537 -1.2037323
1.1609572 0.48733047 -2.1016037 -2.4186215 0.022818536 -0.89147264 -0.4874894 0.8802104
-0.51722413 0.16688736 -3.9418705 -0.15797493 0.7290615 0.61173666 0.062423818 -2.7082636
0.124330625 0.4310528 0.22342671 -2.2937589 -2.6270857 -3.5070179 0.13320902 -0.6855627
-2.273048 1.1572644 -0.07305801 -2.988015 -1.3770338 -0.81692475 0.44112542 -1.2425656
-0.49773416 -1.7054068 -1.149141 0.45852605 -0.29025108 0.47411817 0.15372184 -0.25988483
-2.3184822 -0.6078454 -2.4215777 0.5747755 0.2671742 0.7824011 -0.016545922 -0.114132196
-2.042994 0.7312931 -0.66725016 0.8048005 1.1035216 -3.5187821 -2.991996 -2.0791419
-0.28996673 -0.8045008 -0.2927613 -3.4356682 1.2185357 -1.5786029 -0.7131647 -1.5169953
-2.4608347 0.712105 0.3177099 0.24832106 -0.5572114 -3.0817118 -3.2824805 0.29547575
-2.8082504 -0.42303103 0.80480057 -1.5867509 -0.9222683 -2.448871 -0.11987792 -0.57264006
-2.4729064 -2.2820096 0.20314133 1.0502368 0.44590768 -2.599776 -3.57238 0.8928731
-1.0564364 -2.1639645 1.0636573 -1.5922596 -0.03759681 -2.3318145 -2.7872462 -2.1411865
0.42003727 -1.8071773 -0.250601 0.36206582 0.45019323 -1.8963096 -1.8897902 0.39468622
0.6517169 -2.6612856 0.24361156 -0.09037696 -0.83146155 -2.1913126 -1.3647119 0.046280213
0.21290258 0.52605265 -0.65820956 -0.11210242 -1.1624256 -2.921681 -0.3111469 0.38528898
-1.1585276 0.084122345 -0.4969632 0.63293946 0.1517052 -1.4951577 -1.1455741 0.2968768
-0.51246005 0.5593398 -2.4802938 0.57783085 0.22848052 -0.5677903 -0.36346826 0.42984015
-2.964545 0.09502817 -0.9891233 -0.8404925 0.11981668 0.42298442 0.28337374 -0.6335293
-0.042936515 0.6638799 -2.380184 -3.227596 0.6046593 -3.4156976 0.8559178 -1.2236608
-1.9977001 0.7526189 -1.5829898 0.58338284 0.34705785 -2.186865 0.33099008 -2.3143544
0.8225395 0.939323 -0.5402623 0.36922884 -1.3970934 -0.31843698 -5.663001 0.82047945
-0.07229082 0.01787112 -0.77279323 -0.482213 -0.40630132 -0.2257274 -0.034223806 -0.43684447
1.0020192 -0.97786254 -0.69613725 -3.3539126 -2.2137434 -0.15938462 0.6413942 -0.55272007
0.30329463 0.43936476 -0.3604886 -0.39880013 -0.17194739 -4.100365 0.023902465 -3.4123998
0.38047215 -0.5369732 -1.2019985 0.5475348 -0.5374007 -0.13918768 -1.0243255 0.7716712
-3.141566 -1.7344502 -0.20616738 0.8731577 -0.11982474 0.26482427 -0.9936184 0.40261942

l3.bias f4 [30]
00000000: feb2 8cbe 6daf 3fbd 104d 80bf 49c5 b0be
00000010: 059f ddbd 017b 2dbe 1768 21bf 2ddd 23be
00000020: 5103 0ebf 76ae 0abe 532a 643f 17b1 0b3f
00000030: 6b62 703d 3523 ac3e 5f44 ea3d 0c53 fd3e
00000040: 8e16 4bbe 5a62 37bc b0e4 73bf fb9e 59bf
00000050: 3f0a 273e 85c0 b3be dc3d 203f b25b 25bd
00000060: fb0e 603f c4dc debe db3d 363f 64a3 073f
00000070: 4a04 07bf 3d90 0b3f
-0.2748031 -0.04679816 -1.0023518 -0.34525517 -0.10821346 -0.16941454 -0.63049453 -0.1600234
-0.5547381 -0.13543114 0.8912708 0.5456709 0.05868761 0.3362061 0.11438822 0.49477422
-0.19832823 -0.011192882 -0.95270824 -0.8500821 0.16312502 -0.35107818 0.6259439 -0.04037065
0.8752286 -0.43527806 0.71188134 0.5298369 -0.5274092 0.54516965
